weights/weight.pth (torch_old, 14782 bytes, 6 tensors)

0.weight f8 [30, 16]
0	0x3fca1ec84854e3af	0.20406440288368574
1	0x3fbfb8d5461e5fc7	0.12391407930260732
2	0x3fb43cdfd9f47d51	0.0790538699261465
3	0x3fbd1eff7b0ae98c	0.11375424150438657
4	0xbfa70fb4ade26963	-0.04504170057880932
5	0xbf7059be7808efed	-0.003991836566054713
6	0x3fb69629abae70dd	0.0882288021225039
7	0x3fc9fa862e8fd80a	0.20295789025811956
8	0xbfa5dd993f9b71d6	-0.042706288351584895
9	0xbfa2b95added400b	-0.03657039603297115
10	0xbfb51b3a49992e31	-0.08244671151003825
11	0xbfcac04f2256e4b9	-0.20899380852441654
12	0xbfb3edf5b01f99a5	-0.07784972715271594
13	0x3fca4e3478d84109	0.20551162624952493
14	0xbfa11295772a077e	-0.03334490852013426
15	0xbfb96abeaf17fdc7	-0.09928504729031494
16	0xbfc775eb80000000	-0.1832861304283142
17	0xbfc415e8c0000000	-0.15691861510276794
18	0xbfc59561c0000000	-0.1686212718486786
19	0x3f74c3f800000000	0.005069702863693237
20	0xbfb7c73380000000	-0.09288331866264343
21	0x3fbb8ab280000000	0.10758510231971741
22	0xbfbcf99600000000	-0.11318337917327881
23	0xbfcf0b89c0000000	-0.24253961443901062
24	0x3fb64dd500000000	0.08712512254714966
25	0xbfaa34b300000000	-0.0511833131313324
26	0x3fc5501700000000	0.16650664806365967
27	0xbfb0b47680000000	-0.06525364518165588
28	0xbfb8481380000000	-0.09484979510307312
29	0xbfa6d3e900000000	-0.04458549618721008
30	0xbfae17b500000000	-0.05877462029457092
31	0xbfbea6a380000000	-0.11973020434379578
32	0x3f759df9ddd6820d	0.0052776108181267324
33	0x3fc1ca0f66f36abd	0.1389788868608174
34	0x3fb9d91f5795127b	0.1009692753623969
35	0x3fadd2806568d49c	0.058246624354447024
36	0x3fce50534bfec8f5	0.23682633600908046
37	0xbfb2144af195e20e	-0.07062214277346632
38	0xbfd00b86f0c750bf	-0.25070355905087277
39	0xbfc00b0e6f432e3e	-0.12533741410003246
40	0xbfa99cdc96f95357	-0.0500248846334787
41	0x3fa3960a0f46fc88	0.038254083981422105
42	0xbfbac476154b4861	-0.10456026096224626
43	0x3fc1d4bb416834be	0.13930454915717932
44	0x3fc43845467d4fa1	0.1579672426402086
45	0x3fccd32386953c22	0.22519344397957847
46	0xbfce7e437c5f54c4	-0.23822825978155582
47	0xbfcc780d3c1f4aa5	-0.22241368709236045
48	0xbfc784231fc92a96	-0.18372000743905365
49	0x3fc4da50a0bca95b	0.16291244362339338
50	0xbfccb231eacc9ba9	-0.2241880794983591
51	0xbfbea7125cd55fd5	-0.11973681227152551
52	0xbfc35617783faf8b	-0.15106480952760779
53	0xbfb2d3e149ae987e	-0.07354553269269279
54	0xbfc9016e2aaab5a3	-0.19535615046826846
55	0xbfc334f0e1a34dbd	-0.15005312936282947
56	0xbfab2f04952dfe04	-0.053093093119056106
57	0xbfc93c0e7e94e4c2	-0.19714528256171177
58	0xbfc6372bae3426cd	-0.17355867391625282
59	0xbfc4133196e34740	-0.15683574550217294
60	0x3faef14dc21c9908	0.0604347514584323
61	0xbfbfe32684841900	-0.12455979094747605
62	0xbfb518cb480cd500	-0.08240957745586641
63	0x3fba20d991f4f6b2	0.10206374944115273
64	0x3fb0d214eca8e1d6	0.06570559289764985
65	0x3fcb3ba7a8c52a38	0.21275802365046714
66	0x3f958769eb8b7b84	0.02102437496329969
67	0xbfc189777db9b032	-0.13700765265400744
68	0x3f885d953b2ecca8	0.011897245281806981
69	0xbfc4c55c4072cfc7	-0.1622729601564272
70	0xbfb01787ec35d018	-0.0628590537724566
71	0x3fd122052d89b958	0.26770142981594836
72	0x3fc6f8d76f7b1280	0.17946904128452346
73	0x3fbf65f22976b543	0.12264932167336888
74	0x3fca49384ee57b36	0.2053594956623443
75	0xbfd279e42b5ca3a5	-0.28868965372617544
76	0x3fc16cc91442533a	0.13613236893857011
77	0x3fc932c99e4bada3	0.19686241368559107
78	0xbfcefbd7d66d3958	-0.2420606419568212
79	0x3fc1d503d05e8ff2	0.1393131987980492
80	0x3f92d96800000000	0.018407464027404785
81	0x3fa4052000000000	0.039101600646972656
82	0x3fc26577c0000000	0.1437215507030487
83	0x3fcee9b440000000	0.24150708317756653
84	0x3fc0ca1600000000	0.13116717338562012
85	0x3fcb062c00000000	0.21112585067749023
86	0x3fcd369f40000000	0.22822943329811096
87	0x3fc2e32680000000	0.1475570797920227
88	0x3f9789f800000000	0.0229872465133667
89	0x3fc2b25e80000000	0.14606839418411255
90	0x3fb13ed580000000	0.06736502051353455
91	0x3fcccee0c0000000	0.22506341338157654
92	0xbfc5d293c0000000	-0.17048880457878113
93	0x3fa3226900000000	0.03737190365791321
94	0x3faef15e00000000	0.06043523550033569
95	0xbfa844f900000000	-0.047401219606399536
96	0xbfbc3e1d80000000	-0.11032280325889587
97	0xbfc0e1cb00000000	-0.1318906545639038
98	0x3fbc831b00000000	0.11137551069259644
99	0x3fc414f940000000	0.15689006447792053
100	0xbf723b3800000000	-0.004451006650924683
101	0x3fcf5ffc80000000	0.24511677026748657
102	0x3fafe10300000000	0.06226357817649841
103	0xbfc124b900000000	-0.1339331865310669
104	0x3fa557ca00000000	0.041685402393341064
105	0xbfc6fa8040000000	-0.1795196831226349
106	0xbfa5c20800000000	-0.0424959659576416
107	0xbfb8d56c80000000	-0.09700658917427063
108	0xbfc593de80000000	-0.16857510805130005
109	0x3fb462fb00000000	0.07963532209396362
110	0x3fb858f780000000	0.09510752558708191
111	0xbfc7b8b3c0000000	-0.18532416224479675
112	0xbfb138523863abe2	-0.06726564289753825
113	0xbfb478ea903718ba	-0.07997003575210018
114	0x3fbc5f622df3b328	0.11083043691514816
115	0x3fb36b42c4d9d67c	0.07585542016917118
116	0xbf9dfe0c33854d85	-0.029289427418303333
117	0x3fb7f56ce6066411	0.09358864417880876
118	0xbfcce7495d87aab1	-0.22580830637828833
119	0x3fb1e3fa5ff7c13a	0.06988491862262416
120	0xbfbb741aec797a7c	-0.10724037431053007
121	0xbfb54def096c7ee2	-0.08322042446206582
122	0x3fac22f6ea35e843	0.05495425805106937
123	0xbfc3963cadc855bd	-0.15302237019993284
124	0x3fc1848527bfce69	0.13685669365769407
125	0x3f80414719250f0f	0.007937007384164056
126	0xbfcd4b1bd1530c0b	-0.2288546344844636
127	0x3f4208aa4ff96ad5	0.000550349388457628
128	0x3f913d113f88886e	0.01683451605107005
129	0x3fc3edc6a4c24596	0.15569384617678556
130	0xbfb37a2fae8ef9b5	-0.07608316432649682
131	0xbfadb8cfe5688dee	-0.058050629381138794
132	0x3fd285d2c1d65ecd	0.2894179242079929
133	0x3fa311e6538bb18a	0.037245938967177386
134	0xbfa3935f41aa3797	-0.0382337348611223
135	0x3f942cda4dbba9b6	0.01970234965748726
136	0x3fb66284eeba667c	0.08744078472445865
137	0xbfa8cf7647f6788a	-0.048457809719580316
138	0x3fa7c36bd40612b0	0.04641282046489914
139	0xbfa3c73c28d1de88	-0.038629417403112376
140	0xbfb388cc18a22e41	-0.0763061103954721
141	0x3fcaf955bc064883	0.210734097298488
142	0x3f9b51e85f37b7a8	0.026679640590309056
143	0x3fc85038b300eca3	0.18994816532526668
144	0x3fcbad2640000000	0.21622160077095032
145	0xbfb6833500000000	-0.0879395604133606
146	0xbfc464f4c0000000	-0.15933093428611755
147	0xbfc63e5800000000	-0.17377758026123047
148	0xbfc43e8080000000	-0.15815740823745728
149	0xbfad002a00000000	-0.05664187669754028
150	0x3fcfeb2880000000	0.2493639588356018
151	0xbfbb3d3880000000	-0.10640290379524231
152	0x3fbcc04d80000000	0.11230930685997009
153	0xbfbd183980000000	-0.11365088820457458
154	0xbfc5e4d380000000	-0.17104572057724
155	0xbfcd2f3600000000	-0.22800326347351074
156	0x3fc6923000000000	0.17633628845214844
157	0x3fbcb4d400000000	0.11213421821594238
158	0xbfbe7ccd00000000	-0.11909180879592896
159	0xbfce915a80000000	-0.23881083726882935
160	0x3fc3348531bde6b7	0.15004029206084166
161	0xbfa89202133eb98a	-0.04798895344662231
162	0x3fc9e97e8fd567f4	0.20243818305135586
163	0x3fbe7e7f71626f23	0.11911770361114953
164	0x3fc0c932586f5465	0.1311400348483033
165	0xbfbe85c929860bec	-0.11922890914688339
166	0x3fd6f0cf6e3424a9	0.3584478927810531
167	0x3fd3d84e704035a0	0.310077294940891
168	0xbfbbbc5d58a2e712	-0.10834296621296982
169	0xbfb07b521de60aa3	-0.06438172559686932
170	0x3fa26bd196caed51	0.035978841454801576
171	0xbfd4c86b05f01ddd	-0.32473254756811604
172	0xbfb1b32720b6ae6d	-0.06913990544006206
173	0x3fcf06ab57f51846	0.24239103121562006
174	0x3fd44aa98d64f8dc	0.31705702598618557
175	0x3fd2788d030f7a32	0.2886078386199272
176	0xbfc93ad480000000	-0.19710785150527954
177	0xbfcfc20bc0000000	-0.24810931086540222
178	0x3fb77b7300000000	0.09172743558883667
179	0x3fc8c45b80000000	0.1934923529624939
180	0x3fc710cd40000000	0.1802002489566803
181	0x3f9e42ac00000000	0.029551208019256592
182	0x3fc6652cc0000000	0.1749626100063324
183	0x3fc407f100000000	0.15649235248565674
184	0xbfc973b8c0000000	-0.1988440454006195
185	0x3fbd8b5b80000000	0.11540767550468445
186	0x3fca9accc0000000	0.20784911513328552
187	0xbfc6047c00000000	-0.1720118522644043
188	0xbfc0d6e1c0000000	-0.1315576732158661
189	0xbfa9c86b00000000	-0.05035719275474548
190	0xbfbf5ff800000000	-0.1225581169128418
191	0xbfcd89b640000000	-0.23076513409614563
192	0x3fb2f8e48e9a9bfd	0.07411030274907655
193	0xbfc151ea8e700413	-0.13531238512953844
194	0x3fcd326dc800518c	0.22810146585164792
195	0x3fc3e4343423c66d	0.1554017309750181
196	0xbfc849b972d54b1d	-0.1897498903950571
197	0xbfbb80b2950f165f	-0.10743251933225782
198	0x3fbac9166453c569	0.10463085126300133
199	0x3fbfbfbc16e6da68	0.12401938971638915
200	0x3fcb9b0997e582ee	0.21566886822531423
201	0x3fb54287ac0b20d8	0.08304641676216151
202	0x3fc5a538f2785e6a	0.16910468901982095
203	0xbfcaa8e58e3ce496	-0.2082793182869735
204	0x3fd0cec6f64a7027	0.2626206784423197
205	0x3fa9019941c364c7	0.048840321805707236
206	0xbfc3436bb55aa582	-0.150495017577935
207	0x3fcd6ffabe44572d	0.22997984209421798
208	0x3fc5070740000000	0.16427698731422424
209	0xbfca327f80000000	-0.20466607809066772
210	0x3fa5902100000000	0.042115241289138794
211	0x3fc22c3bc0000000	0.14197489619255066
212	0xbfc58c49c0000000	-0.16834375262260437
213	0x3faab00d00000000	0.05212441086769104
214	0x3fc0c80d40000000	0.13110509514808655
215	0xbfa9392700000000	-0.04926416277885437
216	0xbfbbaeb980000000	-0.10813483595848083
217	0xbf80dfe400000000	-0.008239537477493286
218	0x3fc41a28c0000000	0.1570483148097992
219	0xbfcf3bd4c0000000	-0.24401339888572693
220	0xbfcc794080000000	-0.22245031595230103
221	0xbfaf36aa00000000	-0.06096392869949341
222	0x3fc4e02840000000	0.16309073567390442
223	0x3f873d4000000000	0.011347293853759766
224	0x3fb83ef180000000	0.09471043944358826
225	0x3fa9177e00000000	0.0490073561668396
226	0xbfcceca540000000	-0.22597184777259827
227	0x3fb69f3480000000	0.08836677670478821
228	0x3fc7936800000000	0.18418598175048828
229	0xbfa63e4e00000000	-0.04344409704208374
230	0x3fbc65c700000000	0.1109279990196228
231	0xbf7ce2f800000000	-0.007052391767501831
232	0xbfcf2b3d40000000	-0.24350705742835999
233	0x3fab733800000000	0.05361342430114746
234	0xbfb38e1080000000	-0.0763864815235138
235	0xbfb851f380000000	-0.09500047564506531
236	0xbfb1f32680000000	-0.07011643052101135
237	0x3fc0feca40000000	0.13277557492256165
238	0x3f5a194000000000	0.0015929341316223145
239	0xbfc28a7440000000	-0.14485028386116028
240	0xbfcb07b340000000	-0.21117249131202698
241	0xbfc07a6fc0000000	-0.1287364661693573
242	0xbfc361c7c0000000	-0.15142151713371277
243	0xbfac7ee700000000	-0.05565568804740906
244	0xbfc5b4c300000000	-0.1695789098739624
245	0x3fce379dc0000000	0.23607227206230164
246	0x3fc0ed3640000000	0.13223913311958313
247	0x3f92ede600000000	0.01848563551902771
248	0x3fc3d8eb80000000	0.1550573706626892
249	0xbfc02c6240000000	-0.12635448575019836
250	0x3fa0a7f300000000	0.03253135085105896
251	0xbfaadc6d00000000	-0.05246296525001526
252	0xbfc353ef80000000	-0.1509990096092224
253	0xbfc620a940000000	-0.17287173867225647
254	0x3fc1ddf480000000	0.13958603143692017
255	0x3f6e2f1000000000	0.0036845505237579346

0.bias f8 [30]
0	0xbfc01564df7c9dcf	-0.12565289413872313
1	0x3f925f1600000000	0.01794084906578064
2	0xbfc66c9d8231a075	-0.17518967492219742
3	0xbfcae4d35648663e	-0.21010820115115963
4	0xbfb4798b2153c200	-0.0799796062817748
5	0xbfc4fd0700000000	-0.16397178173065186
6	0xbfce817080000000	-0.23832517862319946
7	0xbfaadaee71a54ab4	-0.05245156419063815
8	0x3fcc57d96fe2666f	0.22143094981292985
9	0x3fcbeb8700000000	0.21812522411346436
10	0x3f8dc47bf38ceb18	0.014534920091696032
11	0x3fcbb96e40000000	0.21659639477729797
12	0xbfb3b4511308575e	-0.07697016443884538
13	0x3faa04a800000000	0.05081677436828613
14	0x3fb4655700000000	0.07967132329940796
15	0x3fcf4ced00000000	0.24453508853912354
16	0x3fd4000e974645af	0.31250347874546497
17	0x3f723d4000000000	0.004452943801879883
18	0x3fb0f81180000000	0.06628522276878357
19	0x3fb30402c7f43eca	0.07427995092097742
20	0xbfabe0eb00000000	-0.05445036292076111
21	0x3fcdf09300000000	0.23390424251556396
22	0x3fc5621380000000	0.16705554723739624
23	0x3fc085f9f682e67f	0.12908863579450622
24	0xbfc084ed40000000	-0.12905660271644592
25	0x3fc3d1ef40000000	0.15484419465065002
26	0x3fc5dea540000000	0.17085710167884827
27	0xbfc0d8912fe533f2	-0.13160910452498303
28	0x3fce5dad80000000	0.23723381757736206
29	0x3fca33abc0000000	0.20470187067985535

2.weight f8 [30, 30]
0	0x3fbd1f1fd104b401	0.11375616887080754
1	0xbfc31d2320000000	-0.14932669699192047
2	0x3fbb20743ce88e6b	0.1059639595701413
3	0xbfc5524715c722a6	-0.16657341540692022
4	0xbf9f0d0e09ee223b	-0.030323237758724125
5	0xbfc7257480000000	-0.18083053827285767
6	0xbfc20d4b80000000	-0.14103072881698608
7	0x3fb7ebc922ec609a	0.09344155409451319
8	0x3f72fa976a63ac10	0.0046335138961053485
9	0xbfb2b48980000000	-0.07306727766990662
10	0xbf9e049d715578f3	-0.029314479868269804
11	0x3fc3e0e080000000	0.15530019998550415
12	0xbfc4d03886aff8d0	-0.1626043946889184
13	0xbfb38c56a0000000	-0.07636014372110367
14	0x3fc4becdc0000000	0.16207286715507507
15	0x3fb8910380000000	0.09596273303031921
16	0x3f921dffcde81409	0.01769256300214653
17	0xbfb78d4cc0000000	-0.09199981391429901
18	0xbfbc614520000000	-0.1108592227101326
19	0xbfa64f3c459abefa	-0.04357326841033955
20	0x3fbcf1e100000000	0.11306577920913696
21	0x3fc45c9bc0000000	0.15907618403434753
22	0xbfc1116e00000000	-0.13334441184997559
23	0x3f8d45cc889e079e	0.01429328720019268
24	0xbfc54a82a0000000	-0.16633637249469757
25	0xbfb74ec8a0000000	-0.09104589372873306
26	0xbfc62c39a0000000	-0.17322464287281036
27	0x3fc1bfca70bba7ed	0.13866549019377264
28	0xbfc4ce70a0000000	-0.16255004703998566
29	0xbfbf7b7ce0000000	-0.12297802418470383
30	0x3f805eea1918fec4	0.00799353493778144
31	0xbfc025cf40000000	-0.1261538565158844
32	0xbf758998a8d0b8ca	-0.005258175207059243
33	0x3fb843dd7a651f44	0.09478553999099143
34	0x3fc73200f6c767e7	0.18121349382164384
35	0xbfa7d08600000000	-0.04651278257369995
36	0xbfbedb7e80000000	-0.12053671479225159
37	0xbf95d77fad5508cb	-0.021329874948840904
38	0x3fb8ea29ac5c368f	0.09732304056179884
39	0x3fb11d4500000000	0.066852867603302
40	0x3fc50a2e64597297	0.16437320613740233
41	0xbfad123080000000	-0.0567793995141983
42	0x3fc9bb0993e7ebb4	0.20102042886705151
43	0xbfa891af00000000	-0.0479864776134491
44	0x3f83a8d800000000	0.009599387645721436
45	0x3fa493d800000000	0.04019045829772949
46	0x3fb905213a151340	0.0977345244219352
47	0x3fc0a28b40000000	0.12996044754981995
48	0xbfba6438c0000000	-0.103091761469841
49	0xbfd92ef011d496e1	-0.39348985425236377
50	0x3fc5c85340000000	0.1701759397983551
51	0xbfc2f44b20000000	-0.1480802446603775
52	0x3f98389000000000	0.023653268814086914
53	0xbfa33f729d986e38	-0.03759344266674386
54	0xbfc20ec9a0000000	-0.14107628166675568
55	0x3fc4ac9f40000000	0.16151800751686096
56	0xbfb5c68660000000	-0.0850604996085167
57	0x3fbd1b9a4c48dca7	0.11370243418137936
58	0x3fa4fbb380000000	0.04098282754421234
59	0xbfb05630e0000000	-0.0638151690363884
60	0xbfbd31be80000000	-0.11404028534889221
61	0xbfc50feda0000000	-0.1645485907793045
62	0x3fbb0e5200000000	0.10568726062774658
63	0x3fc390e9c0000000	0.1528598964214325
64	0xbfc6628c80000000	-0.17488247156143188
65	0x3fbf5a6f80000000	0.12247368693351746
66	0x3fb1fca100000000	0.07026106119155884
67	0x3fc5fb0640000000	0.1717231571674347
68	0xbfb23e95e0000000	-0.07126747816801071
69	0x3fb6e3db80000000	0.0894143283367157
70	0x3fb0c48000000000	0.06549835205078125
71	0x3faa4efe80000000	0.05138392746448517
72	0xbfaa3cb300000000	-0.0512443482875824
73	0xbfb953fa60000000	-0.09893765300512314
74	0x3fb7f47b00000000	0.09357422590255737
75	0x3fc090e640000000	0.12942197918891907
76	0xbfbee69360000000	-0.12070580571889877
77	0x3fb3998980000000	0.07656154036521912
78	0xbfac8c7700000000	-0.055759161710739136
79	0xbfc01f6b40000000	-0.12595883011817932
80	0xbfb2155f00000000	-0.07063859701156616
81	0xbfbaf32380000000	-0.10527250170707703
82	0x3fc087e740000000	0.12914744019508362
83	0xbfb8eb1ba0000000	-0.09733746200799942
84	0x3fa09a5480000000	0.03242744505405426
85	0xbf94f5a100000000	-0.020468249917030334
86	0xbfbc57d440000000	-0.11071516573429108
87	0xbfc45675c0000000	-0.1588885486125946
88	0x3fb8606900000000	0.09522110223770142
89	0xbf97467500000000	-0.02272970974445343
90	0xbfb1c8aef07cc667	-0.0694684350135276
91	0x3fbe964900000000	0.1194806694984436
92	0x3fc14c0e414d95b9	0.1351335352766634
93	0xbfb7a724c4f4a964	-0.09239415939797407
94	0x3fa65ea069ac6f6c	0.04369069375954279
95	0x3f73ba4c00000000	0.004816338419914246
96	0x3fbef72c00000000	0.12095904350280762
97	0x3faf90d28a4c4f78	0.06165178240021779
98	0x3fd0b5e9cc32d9dc	0.2611031049849808
99	0xbfbaa3aba0000000	-0.10405991226434708
100	0x3fb38e71821412af	0.07639226365797457
101	0xbf971b3d00000000	-0.0225648432970047
102	0x3fb74ef2943bb065	0.09104839438413277
103	0x3fbe08dc00000000	0.11732268333435059
104	0xbfb76c0980000000	-0.09149226546287537
105	0xbfa6003680000000	-0.04297037422657013
106	0xbfc78f5b94f3d99b	-0.18406243107865525
107	0x3fc01da1c0000000	0.12590429186820984
108	0xbfbb2f9b40000000	-0.10619516670703888
109	0x3fc453fac8baf430	0.15881285477908724
110	0xbfc2cd38a0000000	-0.1468878537416458
111	0x3f92b53000000000	0.01826930046081543
112	0xbfb5f53820000000	-0.08577299863100052
113	0xbfd6aab5903e8d78	-0.3541692646633332
114	0xbfc1066c00000000	-0.13300848007202148
115	0x3fb0d70340000000	0.06578083336353302
116	0x3fa56a0780000000	0.04182456433773041
117	0x3fc616a2dd243ea2	0.17256580160073037
118	0xbfc0f17b60000000	-0.13236944377422333
119	0xbfae41bc40000000	-0.059095270931720734
120	0xbfbf129ac0000000	-0.12137763202190399
121	0xbf97194700000000	-0.022557362914085388
122	0x3fc5d4af40000000	0.17055311799049377
123	0xbfbd861a20000000	-0.11532748490571976
124	0xbfc6d725d4ee9c83	-0.17844078919481285
125	0xbfbf90b3c0000000	-0.12330172955989838
126	0xbf91a0b700000000	-0.017214640974998474
127	0x3fa1911280000000	0.03430993854999542
128	0x3f9a8038a32e374f	0.025879750213383897
129	0x3fc03810c0000000	0.12671098113059998
130	0x3f98fc212ebea55c	0.024399298170157166
131	0xbfaaf5c400000000	-0.05265629291534424
132	0x3fbe17cf4f72a1b7	0.11755080880778378
133	0xbfc2538840000000	-0.1431742012500763
134	0x3fb192c100000000	0.06864553689956665
135	0x3fb2db6000000000	0.07365989685058594
136	0xbfb3cd9c68d0b677	-0.07735612448660754
137	0xbfc1800c80000000	-0.13672024011611938
138	0x3fbeda8900000000	0.12052208185195923
139	0x3f9e9166b15617dc	0.029851536344288707
140	0x3fb31f1180000000	0.07469281554222107
141	0x3fc2f08800000000	0.1479654312133789
142	0xbfb8289560000000	-0.09436925500631332
143	0xbfb0aa356dfa2da0	-0.06509717879287402
144	0xbfb94fd880000000	-0.09887459874153137
145	0x3fb27c3e00000000	0.07220828533172607
146	0xbfc2142ec0000000	-0.1412409245967865
147	0xbf96c7bbda5c15f6	-0.022246298983210587
148	0x3fb4504880000000	0.07935002446174622
149	0xbfc03e2ae0000000	-0.1268972009420395
150	0x3fac66ff3284e73e	0.05547330371559987
151	0xbfaac36c80000000	-0.052272215485572815
152	0x3f577c380aee16f0	0.001433424691386017
153	0xbfbf1d14abc341bb	-0.12153748696733306
154	0xbf995641ad023ce0	-0.024743105110755503
155	0xbfbfa2d740000000	-0.1235785037279129
156	0x3fb1fb7380000000	0.07024309039115906
157	0xbfc093dd68d5c5ee	-0.12951247805499072
158	0xbfbe2265bb11b37c	-0.11771236245267674
159	0xbfb92a5360000000	-0.09830208867788315
160	0x3fc60a390f33a97e	0.17218697778964648
161	0xbf8a32e200000000	-0.01279236376285553
162	0x3fba08cff29486cc	0.10169696495406838
163	0xbfc3b0ec40000000	-0.15383675694465637
164	0xbfb6fcc680000000	-0.08979454636573792
165	0x3fba1ba780000000	0.10198447108268738
166	0x3fd0a905ec4fecae	0.26031635358203686
167	0xbfb3665200000000	-0.07578003406524658
168	0xbf85fae200000000	-0.01073242723941803
169	0xbfbffd7b9e3318ea	-0.12496159183783431
170	0x3f8737e800000000	0.011337101459503174
171	0x3fbb051500000000	0.10554629564285278
172	0x3fc0226500000000	0.12604963779449463
173	0xbf8c5ed25cc7a721	-0.013852733093660032
174	0x3fbb802800000000	0.10742425918579102
175	0xbf976d8300000000	-0.02287869155406952
176	0x3fc254fc80000000	0.14321857690811157
177	0x3fc055976a64940f	0.12761204428639458
178	0x3fc4bcf6c0000000	0.16201671957969666
179	0xbfc1e7ede0000000	-0.1398904174566269
180	0x3fafcffa0fbd28f9	0.06213361208081553
181	0x3fbf588800000000	0.12244462966918945
182	0xbf896df0abceb6ad	-0.012416725390575445
183	0x3fc0df0d51fe6bed	0.1318070078239936
184	0x3fa4783013e2d051	0.03997946017025867
185	0xbfacde1a80000000	-0.056382015347480774
186	0xbfa880eb00000000	-0.04785856604576111
187	0xbfc42f9d7ea86038	-0.15770310100993057
188	0x3fc77a90fab4b6f3	0.18342792741298516
189	0xbfc309fe20000000	-0.1487424522638321
190	0x3fb39eb178803b4a	0.07664021675030344
191	0x3fb6b07080000000	0.08862975239753723
192	0x3fb1868c3f36a5ab	0.06845928710267539
193	0x3fc2310400000000	0.1421208381652832
194	0x3fb0bd0d00000000	0.06538468599319458
195	0x3f9129f900000000	0.016761675477027893
196	0xbfcac4455edda077	-0.20911471492877684
197	0x3f96798400000000	0.021947920322418213
198	0xbfc382a140000000	-0.15242400765419006
199	0x3fd1826c8036057c	0.2735854389248613
200	0xbf8cafc800000000	-0.014007151126861572
201	0xbf80638e00000000	-0.0080023854970932
202	0x3fc2cb13c0000000	0.14682242274284363
203	0xbfb00d3fc80e65c6	-0.06270216592965658
204	0x3fc68b2880000000	0.1761217713356018
205	0xbfc75a33e0000000	-0.18244026601314545
206	0x3f9b940800000000	0.02693188190460205
207	0x3f9b4f7e542ae074	0.026670431029487365
208	0xbfc1e638c0000000	-0.139838308095932
209	0x3f9264a100000000	0.01796199381351471
210	0xbfa325f880000000	-0.03739906847476959
211	0xbfad709b00000000	-0.05749973654747009
212	0x3f7b5dfc00000000	0.006681427359580994
213	0x3fab818b00000000	0.05372270941734314
214	0x3fbd2a5200000000	0.11392700672149658
215	0x3fc4995240000000	0.16092899441719055
216	0xbfbf3fd700000000	-0.12206786870956421
217	0xbf971f5700000000	-0.02258048951625824
218	0xbfc605cc40000000	-0.17205193638801575
219	0x3f7e4c8800000000	0.007397204637527466
220	0xbfbc088ce0000000	-0.10950546711683273
221	0x3fa00f8500000000	0.031368404626846313
222	0xbfc22e5020000000	-0.14203836023807526
223	0xbf8eef6200000000	-0.015105023980140686
224	0xbfc5dc0940000000	-0.17077746987342834
225	0xbfc388ee40000000	-0.15261629223823547
226	0xbfc3395620000000	-0.15018726885318756
227	0xbfa66fa800000000	-0.04382061958312988
228	0x3fc2641800000000	0.14367961883544922
229	0xbfb35cede0000000	-0.07563673704862595
230	0x3f9b4b2700000000	0.026653870940208435
231	0x3faa08ea80000000	0.050849273800849915
232	0xbfc408db00000000	-0.15652024745941162
233	0x3f8a027e00000000	0.012700065970420837
234	0xbfc1c23360000000	-0.13873903453350067
235	0xbfb7228800000000	-0.09037065505981445
236	0xbf76ef3400000000	-0.005599215626716614
237	0xbfc6a355e0000000	-0.17685960233211517
238	0x3fb4ee7f00000000	0.08176416158676147
239	0x3fb1012b40000000	0.06642408668994904
240	0x3fc4e98fc558bff1	0.16337773452823925
241	0xbfc6e3c9a0000000	-0.17882652580738068
242	0xbfbc01492e491967	-0.10939462070482407
243	0xbfb44ae96877748f	-0.07926806259588857
244	0x3fb8876c6c23a3f6	0.09581639900319758
245	0x3faa4d4a80000000	0.05137093365192413
246	0xbfc4eff0e0000000	-0.16357241570949554
247	0xbfa9c06552345f89	-0.050295988354434114
248	0x3fcd2fa0f8ecc37d	0.2280160155728729
249	0xbfb6f90220000000	-0.08973706513643265
250	0x3fc51b33c97b61f5	0.16489264810549256
251	0xbfc421ca80000000	-0.15728121995925903
252	0x3fd0083394a5784e	0.25050057903525136
253	0x3fa0c10d00000000	0.03272286057472229
254	0xbfc1a5c0a0000000	-0.13787086308002472
255	0x3fbbd08500000000	0.10865050554275513

2.bias f8 [30]
0	0xbfc82f2b373f2a26	-0.1889394778975923
1	0x3fbf17cd7f3945ef	0.12145695072219785
2	0x3fa822a500000000	0.04713931679725647
3	0x3fce852160522e50	0.23843781665014996
4	0xbfa03a5a20f15efe	-0.03169519092688054
5	0x3f9e703570e4aafd	0.029724917426544362
6	0x3fa7afb9e0b3db31	0.0462625586314317
7	0x3f962f9f00000000	0.021666035056114197
8	0x3fc712698ce973e1	0.18024939899888096
9	0x3fc730ac602404a7	0.181172892516803
10	0x3fce9e6d4aa5a467	0.2392098059165477
11	0x3fb97a99d5f57820	0.0995269915924557
12	0xbfacd05c80000000	-0.05627717077732086
13	0x3fc47ec800000000	0.16011905670166016
14	0x3f6f56d800000000	0.0038255900144577026
15	0x3fc4944d9cfdb360	0.16077585378243509
16	0x3fc0d04f3c7e5635	0.13135710195335695
17	0x3fc15bc5c2b9aec4	0.13561317451546107
18	0x3fc5ff6300000000	0.17185628414154053
19	0x3fc0d57f80000000	0.13151544332504272
20	0x3fc85d2d53ffcd69	0.19034353829884346
21	0xbf933d2300000000	-0.01878790557384491
22	0x3fb33e7e0f04ea7f	0.07517230860404743
23	0xbf945c2500000000	-0.019882753491401672
24	0xbfb95bade4c322f8	-0.0990551646710961
25	0xbfbf073c90d54ae7	-0.12120417152372519
26	0xbfb02a6171733fab	-0.06314667720584903
27	0xbfb61f79c0000000	-0.0864177793264389
28	0x3f894fd400000000	0.012359291315078735
29	0x3f97ad61b111159f	0.023122335846229466

4.weight f8 [9, 30]
0	0x3fb35df8f3b11e86	0.07565265607365221
1	0xbfc423224862dc7a	-0.15732220205765995
2	0x3fb11d2600000000	0.06685101985931396
3	0x3fd01e5d4f503ff5	0.25185330148178703
4	0xbfb8f6999133b36b	-0.09751281542749062
5	0xbfc7a48a2a56256a	-0.184708853408931
6	0x3fd02b9bb0180450	0.25266163059865665
7	0xbfbff011e0000000	-0.12475692480802536
8	0xbfc3d09262f7c363	-0.15480260689175926
9	0xbfc54e718f778e80	-0.16645640855050559
10	0x3fd2509ddc3df6d4	0.2861704493333097
11	0xbfa4f338b2ded6ce	-0.04091813262441023
12	0xbf9df51c00000000	-0.029255330562591553
13	0x3fbd74b100000000	0.11506181955337524
14	0x3fb60c5c80000000	0.08612611889839172
15	0xbfc766d5da482df9	-0.18282578619287884
16	0x3fbe9e4dbf1d69c2	0.11960302272692672
17	0x3fa746c997f1b0f9	0.0454619405726095
18	0xbfc286c520000000	-0.1447378545999527
19	0xbfb22cd600000000	-0.07099664211273193
20	0xbfcce9a70e2c9705	-0.2258805102548466
21	0x3fb1844580000000	0.06842455267906189
22	0xbfa692dd821c8e04	-0.044089243061787214
23	0xbfa59b6c80000000	-0.042201414704322815
24	0x3fc6059596d1616c	0.17204542030482217
25	0x3fc53bcb0abf9461	0.16588724160024795
26	0x3fc98f5bcad1bcdd	0.1996874561623149
27	0xbfac441480000000	-0.05520690977573395
28	0x3f9e1c5800000000	0.02940499782562256
29	0xbfbb1ee9984063e0	-0.10594043700292799
30	0xbfb25d4ca0c37c7f	-0.07173613476651218
31	0x3fa7871171d66a65	0.045952363153635635
32	0xbfc1fc0080000000	-0.14050298929214478
33	0x3f958e6036ab5ed2	0.021050933205372165
34	0x3fbfb9db4e59cad5	0.12392969763622415
35	0x3fc955562c632794	0.19791676680898418
36	0x3fc65504afa35087	0.17446955276557594
37	0xbfaec6c700000000	-0.06011030077934265
38	0x3fc022f65433fdc1	0.12606696235159912
39	0xbfb02c4bbbdc7aa8	-0.06317590080696311
40	0xbfc0399ed34d96d4	-0.12675843541653953
41	0x3fc9ab0ddf768518	0.20053265963819267
42	0xbfc1da4220000000	-0.13947321474552155
43	0x3fc3e39880000000	0.1553831696510315
44	0xbfb18722c0000000	-0.06846825778484344
45	0xbfb1ecd9837defc5	-0.07002028904201925
46	0xbfaaae2c10f98edc	-0.05211007792675357
47	0x3fc1d35ad2a7cb74	0.13926253591452176
48	0x3fc1469740000000	0.13496676087379456
49	0x3fc562f1c0000000	0.1670820415019989
50	0x3fc4aba543fd4e64	0.16148820705221845
51	0x3fc06b2980000000	0.12827032804489136
52	0x3f825bc57267a47a	0.00896410231958299
53	0xbfb51ee220000000	-0.08250249177217484
54	0x3fbc82060d453c3c	0.11135900329576115
55	0x3fc205e0db36655e	0.14080439285025198
56	0xbfc9900537bbe8de	-0.1997076532496242
57	0x3fc39958c0000000	0.15311726927757263
58	0x3fc68ebcc0000000	0.1762309968471527
59	0xbfbce20a93edefc0	-0.11282411681707938
60	0x3fbdbb863b88fe6c	0.11614264443869055
61	0x3fc4a00d4d83dd88	0.16113439831654497
62	0xbf5314e000000000	-0.0011646449565887451
63	0xbfcc1354d66f32c6	-0.21933994741848134
64	0x3fb67f24a30f1513	0.08787754994326162
65	0x3fd076ed68b76503	0.2572587511654804
66	0xbfb247f5cb40d5df	-0.07141052448499562
67	0xbfad60c480000000	-0.05737890303134918
68	0x3fb65e5e503df153	0.08737744769127191
69	0xbfd36e85c8f5d293	-0.3036207640173327
70	0xbfca1abb47d29bb2	-0.20394078261344145
71	0x3fc22eea9541d3a1	0.14205677307077472
72	0x3fb2154080000000	0.07063677906990051
73	0x3f95a32600000000	0.02113017439842224
74	0xbfa1625a80000000	-0.033953502774238586
75	0x3fc2dd2d56c24048	0.14737478958386618
76	0x3fc31c4a32f28527	0.14930083739913266
77	0xbfc3f9607315376e	-0.15604787463456254
78	0xbfc4fd43e0000000	-0.16397903859615326
79	0xbfb97296e0000000	-0.09940474480390549
80	0x3fcf6f60c7683c5f	0.2455864881198719
81	0xbfb7a5c940000000	-0.09237344563007355
82	0x3fcc93802a362c2d	0.22325136242975088
83	0x3fbad91480000000	0.1048748791217804
84	0x3fbdf2135fc28f81	0.11697503173723868
85	0x3fbc4c789edb5992	0.1105418575128623
86	0xbfc847a6ef6adafb	-0.18968664827635692
87	0x3f7478c400000000	0.0049979835748672485
88	0xbfb68567a0000000	-0.08797309547662735
89	0x3fcff8b2ba0faf54	0.2497771652700701
90	0xbfbacd412aec2030	-0.10469443605336504
91	0xbfbda0bcc30fce30	-0.11573390733956823
92	0xbfaed93340000000	-0.06025085598230362
93	0xbfc8ea89dce6cf19	-0.19465754781924074
94	0x3fc5b20fa1223816	0.16949649207930467
95	0xbfb25c4cf2ec1dc3	-0.07172089510651518
96	0x3fbdf5bbb385ac0d	0.11703084118714475
97	0x3fc53ccc40000000	0.16591790318489075
98	0x3fc11f2ac3343919	0.1337636426109803
99	0x3f79952eb34d14bc	0.006245787070672634
100	0x3f9f94eae991d87d	0.030841513162578316
101	0xbfb4d69b65ca4880	-0.0813996432791857
102	0x3fa9de5a00000000	0.05052453279495239
103	0xbfa3101480000000	-0.03723205626010895
104	0x3f952ff600000000	0.02069076895713806
105	0xbfc2690eb8f7c991	-0.14383110076557817
106	0xbfbd1b2501f66eb2	-0.1136954431335038
107	0x3fb7ff1217021fef	0.0937358194515807
108	0x3fbd8fa700000000	0.11547321081161499
109	0x3fc69e5c40000000	0.17670777440071106
110	0x3f9f36c4145abfde	0.030482352964725005
111	0x3fb1719e00000000	0.06813991069793701
112	0x3fb7cbe8f05b8a87	0.09295516841988603
113	0xbfc1e0c300000000	-0.1396716833114624
114	0xbfb17dd03ae0df2f	-0.06832601010762283
115	0x3fc1e100e4a791b3	0.139679061553705
116	0xbf9ebd2ee2da0187	-0.030018551441118226
117	0x3f9c1aeb00000000	0.027446433901786804
118	0x3fb9bc1900000000	0.10052639245986938
119	0x3fb143a805ea94ac	0.06743860382501293
120	0xbfa1263dea0acbad	-0.03349488717994773
121	0xbfb60b812e08b94b	-0.08611304639700738
122	0xbfbd50aba0000000	-0.11451218277215958
123	0x3fb0eb39c2ec0d48	0.0660892582782725
124	0xbf2a96fb9a003ff6	-0.0002028638964479687
125	0x3fbb060264b1827d	0.10556044538817307
126	0x3fb10750e1516cdc	0.06651788235597017
127	0xbfb81fd080000000	-0.09423545002937317
128	0xbf80f814159a0497	-0.00828567210123969
129	0xbf72ff71e14fe02a	-0.004638142437208651
130	0xbfd0229ee399efa8	-0.25211307741823896
131	0x3fc49b88a6f64537	0.1609965148204908
132	0xbfb1f726a0000000	-0.07017747312784195
133	0x3fab057e80000000	0.05277629196643829
134	0xbfc2440540000000	-0.14270082116127014
135	0xbf85b45b63bbc2ad	-0.010597909909365677
136	0x3fbf79e888ef8499	0.12295392363695824
137	0x3fc2f4a7557f1c9c	0.14809123682627934
138	0x3fad9d3d00000000	0.0578402578830719
139	0x3fc28f79c0000000	0.1450035274028778
140	0xbfc34828d32b862e	-0.1506396323302836
141	0xbfba7a29e0000000	-0.10342656821012497
142	0x3fbe5b165ff10279	0.11857738344498071
143	0x3fa509e100000000	0.04109099507331848
144	0xbfb1f38bd22c6539	-0.07012246972262383
145	0x3fc4c284efddd950	0.16218625747905913
146	0x3fbabe76328dcbbd	0.10446871504045326
147	0x3fbd7a6d80000000	0.1151493489742279
148	0xbfaa268580000000	-0.05107514560222626
149	0xbfb52512d3679f63	-0.08259694730042848
150	0xbf6382df051adfe1	-0.002381740175078293
151	0x3fa58fc66b96b6dc	0.042112541802777875
152	0xbfa3f37880000000	-0.03896690905094147
153	0xbfc2b8c65f8d6ee8	-0.1462638823094189
154	0x3fc31ae0be02971f	0.14925774839246572
155	0x3fb6ea8c5b331368	0.0895164225249353
156	0xbfb768f472e4b0af	-0.09144523434651107
157	0x3fa7417c00000000	0.045421481132507324
158	0x3fb8e8ad46ca36cb	0.09730036714810379
159	0x3fad8685b53c203c	0.057666948674580415
160	0x3fb117620ffca10c	0.06676304712584996
161	0xbfae62d08db1502a	-0.0593476460423122
162	0xbfa083e080000000	-0.03225614130496979
163	0x3fc0ed9c40000000	0.1322512924671173
164	0x3f89848a00000000	0.012459829449653625
165	0x3fa81721cda4320c	0.047051483490665985
166	0x3fc31c504efe4de1	0.14930156571482114
167	0x3fa147472d86dafd	0.033746933276622905
168	0x3fb3a29980000000	0.07669982314109802
169	0x3fb5995d80000000	0.084371417760849
170	0xbfcf19a28cdb474c	-0.24296981694947772
171	0xbfc4989a80000000	-0.1609070897102356
172	0x3fb02dcd74b0e989	0.06319889162924687
173	0xbfbb4b36c0000000	-0.10661642253398895
174	0xbfc5f481354d506d	-0.17152419188153392
175	0xbfab612301274f4a	-0.053475469485106134
176	0xbfb767fd76e69be6	-0.09143051293231927
177	0xbfbfd6ac80000000	-0.12436941266059875
178	0x3fc2643c80000000	0.14368396997451782
179	0xbfd001c1a823b2b0	-0.2501072065340777
180	0x3fa5e516f35f4375	0.04276344033099281
181	0xbf668e8879508b9d	-0.0027535119538852474
182	0xbfbdb65080000000	-0.11606314778327942
183	0xbfb16bc5ac3fa75d	-0.06805072264947172
184	0x3fb623fbc2c089ac	0.08648656372728308
185	0xbfb291c30186378f	-0.07253664767469402
186	0x3fbbb66889a64661	0.10825208054145598
187	0xbfc47fc600000000	-0.16014933586120605
188	0x3fba4807bdfe502d	0.10266159428130157
189	0x3fab61dbf7be278f	0.05348098181919091
190	0xbfae22d2f8ee26de	-0.05885943688106264
191	0x3f9cf41ca836ecd4	0.028274963156701485
192	0x3fb97c1300000000	0.09954947233200073
193	0x3f8b80e200000000	0.013429418206214905
194	0xbfc665c0c0000000	-0.1749802529811859
195	0xbf87f647da18c5e8	-0.011700211852345668
196	0x3fa3bb3e3a6dc36e	0.03853792632333507
197	0xbf996bcb54712b78	-0.024825264958319576
198	0xbfc04d4ea0000000	-0.12735922634601593
199	0x3fc32a2b00000000	0.14972436428070068
200	0x3fb8f8f84eb48898	0.09754897996438883
201	0x3fc42e9480000000	0.1576715111732483
202	0xbfc8a97d00ccfc87	-0.192672372237187
203	0x3fc21bb400000000	0.14147043228149414
204	0x3f7f7927f59919b5	0.007683902827528778
205	0xbfc27ad812df1d2d	-0.14437390252553808
206	0xbfb1701fc9dc32f4	-0.06811712911821727
207	0x3f7e993400000000	0.007470324635505676
208	0xbfa7cc1b80000000	-0.04647909104824066
209	0xbfae812c2aed342c	-0.05957925819402762
210	0xbf7d8750894ce41c	-0.007209124178921857
211	0x3fb2e6da9bc06777	0.07383505156067637
212	0xbfba5df460000000	-0.10299613326787949
213	0xbfb209139709f50c	-0.07045099675629646
214	0xbf5cc0aabebb593e	-0.0017549197609035417
215	0x3f99d11832a6d219	0.025211694804697957
216	0x3fbaf868a49c32c6	0.10535291689684376
217	0xbf53754000000000	-0.0011876225471496582
218	0xbfa253fad5257558	-0.03579696514018832
219	0x3fb68fcb48cfd4c2	0.08813162353165452
220	0x3fb1bacc1bccc3cf	0.06925655058581913
221	0x3fa62ea0fb7a5393	0.043324499795892944
222	0x3fbe903180000000	0.11938771605491638
223	0x3fb663e900000000	0.08746200799942017
224	0x3f94d94000000000	0.02035999298095703
225	0xbfa8d410c890481a	-0.048492931826459265
226	0x3f9a032081a3817b	0.025402553474920247
227	0xbfb87f7fa38610b7	-0.09569547407415056
228	0x3fc0999200000000	0.12968659400939941
229	0x3fb3362e00000000	0.07504546642303467
230	0x3f80893d96a14d13	0.008074265632024102
231	0xbfc61b9700000000	-0.17271697521209717
232	0xbfc31e6e8e654b2a	-0.1493662066737554
233	0xbfb26569a0000000	-0.0718599334359169
234	0x3fbca10432035eb8	0.11183191510223878
235	0x3fbfaf6051c10d02	0.12376977916669676
236	0xbfcd0ea826f95359	-0.22700979140304403
237	0xbfc6661c60000000	-0.174991175532341
238	0xbfc74d6da0000000	-0.182050421833992
239	0x3fb10c459f1e3937	0.06659350523679995
240	0x3fa97feabba40cd1	0.049804053693173984
241	0x3f73228ad737d178	0.004671614023653674
242	0xbfafa0b580000000	-0.06177298724651337
243	0xbf9cfa76d8a515d8	-0.02829919526381794
244	0x3fa93805f4b89489	0.04925554859463783
245	0x3fb710d3c1075722	0.09010051214803785
246	0xbfb54a1291547e3a	-0.08316150711152029
247	0xbfbb04b0c0000000	-0.10554032027721405
248	0xbfa056508c12a5e6	-0.03190852842210372
249	0xbf819e9f70072c67	-0.008603330236743824
250	0xbfb6ae05c7b5a5ce	-0.08859287381860456
251	0x3fa944a67521a783	0.049351884649538234
252	0xbfad98ba80000000	-0.057805851101875305
253	0xbfc208daa0000000	-0.14089520275592804
254	0xbf934f1800000000	-0.018856406211853027
255	0x3fc68041e76d96bd	0.17578910637091907

4.bias f8 [9]
0	0xbf983404cd909eaf	-0.02363593582791051
1	0x3fafdfeb84409062	0.062255248922412645
2	0x3f72d3197cfb5bc1	0.00459585148174474
3	0x3fa28139be238711	0.03614216276197458
4	0x3fc50aadbedf327f	0.1643883878699803
5	0x3fa7e5ca0ff7dd30	0.046675028275723895
6	0xbfb49cfe646326ff	-0.08052053404676583
7	0xbf9a993281056393	-0.025975026249713883
8	0xbfc184d5986b5faa	-0.1368662828670016
